# Ultralytics YOLO 🚀, AGPL-3.0 license
# YOLOv8-cls image classification model. For Usage examples see https://docs.ultralytics.com/tasks/classify

# Parameters
nc: 1000  # number of classes
scales: # model compound scaling constants, i.e. 'model=yolov8n-cls.yaml' will call yolov8-cls.yaml with scale 'n'
  # [depth, width, max_channels]
  n: [ 0.33, 0.25, 1024 ]
  s: [ 0.33, 0.50, 1024 ]
  m: [ 0.67, 0.75, 1024 ]
  l: [ 1.00, 1.00, 1024 ]
  x: [ 1.00, 1.25, 1024 ]

# YOLOv8.0n backbone
backbone:
  # [from, repeats, module, args]
  - [ -1, 1, DRepConv, [ 40, 11 ] ]  # 1-P2/4
  - [ -1, 1, Conv, [ 40, 3, 2 ] ]  # 1-P2/4
  - [ -1, 1, DRepConv, [ 80, 11 ] ]  # 3-P3/8
  - [ -1, 1, Conv, [ 80, 3, 2 ] ]  # 1-P2/4
  - [ -1, 1, DRepConv, [ 160, 11 ] ]  # 5-P4/16
  - [ -1, 1, Conv, [ 160, 3, 2 ] ]  # 1-P2/4
  - [ -1, 1, DRepConv, [ 320, 11 ] ]  # 7-P5/32

# YOLOv8.0n head
head:
  - [ -1, 1, Classify, [ nc ] ]  # Classify
