# Ultralytics YOLO 🚀, AGPL-3.0 license
# YOLOv8 object detection model with P3-P5 outputs. For Usage examples see https://docs.ultralytics.com/tasks/detect

# Parameters
nc: 80  # number of classes
scales: # model compound scaling constants, i.e. 'model=yolov8n.yaml' will call yolov8.yaml with scale 'n'
  # [depth, width, max_channels]
  n: [0.33, 0.25, 1024]  # YOLOv8n summary: 225 layers,  3157200 parameters,  3157184 gradients,   8.9 GFLOPs
  s: [0.33, 0.50, 1024]  # YOLOv8s summary: 225 layers, 11166560 parameters, 11166544 gradients,  28.8 GFLOPs
  m: [0.67, 0.75, 768]   # YOLOv8m summary: 295 layers, 25902640 parameters, 25902624 gradients,  79.3 GFLOPs
  l: [1.00, 1.00, 512]   # YOLOv8l summary: 365 layers, 43691520 parameters, 43691504 gradients, 165.7 GFLOPs
  x: [1.00, 1.25, 512]   # YOLOv8x summary: 365 layers, 68229648 parameters, 68229632 gradients, 258.5 GFLOPs

# YOLOv8.0n backbone
backbone:
  # [from, repeats, module, args]
  - [-1, 1, Conv, [64, 3, 2]]  # 0-P1/2
  - [-1, 1, Conv, [128, 3, 2]]  # 1-P2/4
  - [-1, 3, C2f, [128, True]]
  - [-1, 1, Conv, [256, 3, 2]]  # 3-P3/8
  - [-1, 6, C2f, [256, True]]
  - [-1, 1, Conv, [512, 3, 2]]  # 5-P4/16
  - [-1, 6, C2f, [512, True]]
  - [-1, 1, Conv, [1024, 3, 2]]  # 7-P5/32
  - [-1, 3, C2f, [1024, True]]
  - [-1, 1, SPPF, [1024, 5]]  # 9

# YOLOv8.0n AFPN head
head_afpn_orig:
  - [4, 1, Conv, [128, 1, 1]] # 10 downsample backbone P3
  - [6, 1, Conv, [256, 1, 1]] # 11 downsample backbone P4

  - [[10, 11], 1, ASFF2, [128, 0]] # 12
  - [[10, 11], 1, ASFF2, [256, 1]] # 13

  - [-2, 1, C2f, [128, False]] # 14
  - [-2, 1, C2f, [256, False]] # 15

  - [9, 1, Conv, [512, 1, 1]] # 16 downsample backbone P5

  - [[14, 15, 16], 1, ASFF3, [128, 0]] # 17
  - [[14, 15, 16], 1, ASFF3, [256, 1]] # 18
  - [[14, 15, 16], 1, ASFF3, [512, 2]] # 19

  - [17, 1, C2f, [128, False]]  # 20 (P3/8-small)
  - [18, 1, C2f, [256, False]]  # 21 (P4/16-medium)
  - [19, 1, C2f, [512, False]]  # 22 (P5/32-large)
  - [[20, 21, 22], 1, Detect, [nc]]  # Detect(P3, P4, P5)


head:
  - [4, 1, Conv, [128, 1, 1]] # 10 downsample backbone P3
  - [6, 1, Conv, [256, 1, 1]] # 11 downsample backbone P4

  - [[10, 11], 1, ASFF2, [128, 0]] # 12
  - [[10, 11], 1, ASFF2, [256, 1]] # 13

  - [-2, 1, C2f, [128, False]] # 14
  - [-2, 1, C2f, [256, False]] # 15

  - [9, 1, Conv, [512, 1, 1]] # 16 downsample backbone P5

  - [[14, 15, 16], 1, ASFF3, [128, 0]] # 17
  - [[14, 15, 16], 1, ASFF3, [256, 1]] # 18
  - [[14, 15, 16], 1, ASFF3, [512, 2]] # 19

  - [17, 1, C2f, [256, False]]  # 20 (P3/8-small)
  - [18, 1, C2f, [512, False]]  # 21 (P4/16-medium)
  - [19, 1, C2f, [1024, False]]  # 22 (P5/32-large)
  - [[20, 21, 22], 1, Detect, [nc]]  # Detect(P3, P4, P5)
