# Ultralytics 🚀 AGPL-3.0 License - https://ultralytics.com/license

# YOLO Anomaly v2 SOFT-HINT + SegBranch (pinned alpha=1, GT mask only).
# Confirms that the softhint fusion is non-destructive in the only Phase 2
# configuration that was positive (a1). Branch: yoloa_v2_softhint.

nc: 80
end2end: True
reg_max: 1
scales:
  n: [0.50, 0.25, 1024]
  s: [0.50, 0.50, 1024]
  m: [0.50, 1.00, 512]
  l: [1.00, 1.00, 512]
  x: [1.00, 1.50, 512]

anomaly_v2:
  mask_size: 80
  mask_mode: rect
  sigma_factor: 0.25
  p_drop: 0.5
  seg_branch: true
  seg_alpha_mode: pinned_one
  seg_gain: 1.0
  seg_detach: true
  mask_shuffle_p: 0.0
  mask_noise_std: 0.0

backbone:
  - [-1, 1, Conv, [64, 3, 2]]
  - [-1, 1, Conv, [128, 3, 2]]
  - [-1, 2, C3k2, [256, False, 0.25]]
  - [-1, 1, Conv, [256, 3, 2]]
  - [-1, 2, C3k2, [512, False, 0.25]]
  - [-1, 1, Conv, [512, 3, 2]]
  - [-1, 2, C3k2, [512, True]]
  - [-1, 1, Conv, [1024, 3, 2]]
  - [-1, 2, C3k2, [1024, True]]
  - [-1, 1, SPPF, [1024, 5, 3, True]]
  - [-1, 2, C2PSA, [1024]]

head:
  - [-1, 1, nn.Upsample, [None, 2, "nearest"]]
  - [[-1, 6], 1, Concat, [1]]
  - [-1, 2, C3k2, [512, True]]

  - [-1, 1, nn.Upsample, [None, 2, "nearest"]]
  - [[-1, 4], 1, Concat, [1]]
  - [-1, 2, C3k2, [256, True]]

  - [-1, 1, Conv, [256, 3, 2]]
  - [[-1, 13], 1, Concat, [1]]
  - [-1, 2, C3k2, [512, True]]

  - [-1, 1, Conv, [512, 3, 2]]
  - [[-1, 10], 1, Concat, [1]]
  - [-1, 1, C3k2, [1024, True, 0.5, True]]

  - [[16, 19, 22], 1, Detect, [nc]]
