# Ultralytics 🚀 AGPL-3.0 License - https://ultralytics.com/license

# Ultralytics YOLO26 object detection model with P3/8 - P5/32 outputs
# Variant: rep-fpn-rep-sres with strip-pooling attention (SPNet/ZipDepth) at backbone
# P4 (new) and P5 (after C2PSA). Global axial context via H/W strip pooling + symmetric
# sigmoid gate; near-zero cost (O(C^2*(H+W))).
# Rep-block expansion `rep_e` scales per model size (4th scales entry): dense RepConv
# cost grows as (c2*width*rep_e)^2, so wider scales use smaller rep_e. Values = max
# capacity with speed >= same-scale yolo26 baseline (interleaved median-of-3, b16 fp16):
# next step up fails at every scale (m 0.3125: 967<985; x 0.334: 433<437). Prefer rep
# widths that are multiples of 16 (tensor-core alignment; x 264ch was catastrophic).

# Parameters
nc: 80 # number of classes
end2end: True # whether to use end-to-end mode
reg_max: 1 # DFL bins
scale_args: [rep_e] # names for scales entries beyond [depth, width, max_channels]
scales: # model compound scaling constants, i.e. 'model=yolo26n.yaml' will call yolo26.yaml with scale 'n'
  # [depth, width, max_channels, rep_e]
  n: [0.50, 0.25, 1024, 0.5] # NOTE: n is ~6% slower than yolo26n at any rep_e (fixed extras dominate)
  s: [0.50, 0.50, 1024, 0.5]
  m: [0.50, 1.00, 512, 0.28125] # 1013 vs base 985 img/s
  l: [1.00, 1.00, 512, 0.3125] # 774 vs base 754 img/s
  x: [1.00, 1.50, 512, 0.3125] # 448 vs base 437 img/s

# YOLO26n backbone
backbone:
  # [from, repeats, module, args]
  - [-1, 1, Conv, [64, 3, 2]] # 0-P1/2
  - [-1, 1, Conv, [128, 3, 2]] # 1-P2/4
  - [-1, 2, C3k2Rep, [256, False, rep_e]] # 2 - rep block
  - [-1, 1, Conv, [256, 3, 2]] # 3-P3/8
  - [-1, 2, C3k2Rep, [512, False, rep_e]] # 4 - rep block
  - [-1, 1, Conv, [512, 3, 2]] # 5-P4/16
  - [-1, 2, C3k2, [512, True]]
  - [-1, 1, StripAttn, []] # 7 - strip gate at P4
  - [-1, 1, Conv, [1024, 3, 2]] # 8-P5/32
  - [-1, 2, C3k2, [1024, True]]
  - [-1, 1, SPPF, [1024, 5, 3, True]] # 10
  - [-1, 2, C2PSA, [1024]] # 11
  - [-1, 1, StripAttn, []] # 12 - strip gate at P5

# YOLO26n head
head:
  - [-1, 1, nn.Upsample, [None, 2, "nearest"]]
  - [[-1, 7], 1, Concat, [1]]
  - [-1, 3, C3k2Rep, [512, True, rep_e]] # 15 - increase depth

  - [-1, 1, nn.Upsample, [None, 2, "nearest"]]
  - [[-1, 4], 1, Concat, [1]]
  - [-1, 3, C3k2Rep, [256, True, rep_e]] # 18 - increase depth

  - [-1, 1, Conv, [256, 3, 2]]
  - [[-1, 15], 1, Concat, [1]]
  - [-1, 2, C3k2Rep, [512, True, rep_e]] # 21

  - [-1, 1, Conv, [512, 3, 2]]
  - [[-1, 12], 1, Concat, [1]]
  - [-1, 2, C3k2Rep, [1024, True, rep_e, True]] # 24
  - [[-1, 12], 1, ScaledAdd, []] # 25: scaled residual from backbone P5

  - [[18, 21, 25], 1, Detect, [nc]]
