# Ultralytics 🚀 AGPL-3.0 License - https://ultralytics.com/license

# X-only Lane B local-capacity control. Adds four effective FastViT-FFN P4 blocks while keeping P5 Attn2 unchanged.

nc: 1000

scales:
  x: [0.35, 1.50, 512]

backbone:
  - [-1, 1, Conv, [64, 3, 2]]
  - [-1, 1, Conv, [96, 3, 2]]
  - [-1, 5, RepUltraViTBlock, [3, True, 0.00001, True]]
  - [-1, 1, Conv, [192, 3, 2]]
  - [-1, 5, RepUltraViTBlock, [3, True, 0.00001, True]]
  - [-1, 1, Conv, [384, 3, 2]]
  - [-1, 32, RepUltraViTBlock, [3, True, 0.00001, True]]
  - [-1, 1, Conv, [1152, 3, 2]]
  - [-1, 8, MHSABlock, [0, 4, True, 0.00001, True, 32]]

head:
  - [-1, 1, Classify, [nc]]
