# Ultralytics 🚀 AGPL-3.0 License - https://ultralytics.com/license

# Ultralytics YOLO26 object detection model with P3/8 - P6/64 outputs
# Model docs: https://docs.ultralytics.com/models/yolo26
# Task docs: https://docs.ultralytics.com/tasks/detect

# Parameters
nc: 80 # number of classes
scales: # model compound scaling constants, i.e. 'model=YOLO26n.yaml' will call YOLO26.yaml with scale 'n'
  # [depth, width, max_channels]
  n: [0.50, 0.25, 1024] # summary: 291 layers, 4,279,280 parameters, 4,279,264 gradients, 6.6 GFLOPs
  s: [0.50, 0.50, 1024] # summary: 291 layers, 15,673,360 parameters, 15,673,344 gradients, 21.8 GFLOPs
  m: [0.50, 1.00, 512] # summary: 311 layers, 30,395,792 parameters, 30,395,776 gradients, 70.6 GFLOPs
  l: [1.00, 1.00, 512] # summary: 465 layers, 37,361,296 parameters, 37,361,280 gradients, 90.2 GFLOPs
  x: [1.00, 1.50, 512] # summary: 465 layers, 83,898,544 parameters, 83,898,528 gradients, 201.9 GFLOPs

# YOLO26n backbone
backbone:
  # [from, repeats, module, args]
  - [-1, 1, Conv, [64, 3, 2]] # 0-P1/2
  - [-1, 1, Conv, [128, 3, 2]] # 1-P2/4
  - [-1, 2, C3k2, [256, False, 0.25]]
  - [-1, 1, Conv, [256, 3, 2]] # 3-P3/8
  - [-1, 2, C3k2, [512, False, 0.25]]
  - [-1, 1, Conv, [512, 3, 2]] # 5-P4/16
  - [-1, 2, C3k2, [512, True]]
  - [-1, 1, Conv, [768, 3, 2]] # 7-P5/32
  - [-1, 2, C3k2, [768, True]]
  - [-1, 1, Conv, [1024, 3, 2]] # 9-P6/64
  - [-1, 2, C3k2, [1024, True]]
  - [-1, 1, SPPF, [1024, 5]] # 11
  - [-1, 2, C2PSA, [1024]] # 12

# YOLO26n head
head:
  - [-1, 1, nn.Upsample, [None, 2, "nearest"]]
  - [[-1, 8], 1, Concat, [1]] # cat backbone P5
  - [-1, 2, C3k2, [768, True]] # 15

  - [-1, 1, nn.Upsample, [None, 2, "nearest"]]
  - [[-1, 6], 1, Concat, [1]] # cat backbone P4
  - [-1, 2, C3k2, [512, True]] # 18

  - [-1, 1, nn.Upsample, [None, 2, "nearest"]]
  - [[-1, 4], 1, Concat, [1]] # cat backbone P3
  - [-1, 2, C3k2, [256, True]] # 21 (P3/8-small)

  - [-1, 1, Conv, [256, 3, 2]]
  - [[-1, 18], 1, Concat, [1]] # cat head P4
  - [-1, 2, C3k2, [512, True]] # 24 (P4/16-medium)

  - [-1, 1, Conv, [512, 3, 2]]
  - [[-1, 15], 1, Concat, [1]] # cat head P5
  - [-1, 2, C3k2, [768, True]] # 27 (P5/32-large)

  - [-1, 1, Conv, [768, 3, 2]]
  - [[-1, 12], 1, Concat, [1]] # cat head P6
  - [-1, 1, C3k2, [1024, True, 0.5, True]] # 30 (P6/64-large)

  - [[21, 24, 27, 30], 1, Detect, [nc]] # Detect(P3, P4, P5, P6)
