# Ultralytics YOLO 🚀, AGPL-3.0 license

# Parameters
nc: 80  # number of classes
scales: # model compound scaling constants, i.e. 'model=yolov8n-cls.yaml' will call yolov8-cls.yaml with scale 'n'
  # [depth, width, max_channels]
  l: [1.00, 1.00, 1024]

backbone:
  # [from, repeats, module, args]
  - [-1, 1, HGStem, [32, 48]]  # 0-P2/4
  - [-1, 6, HGBlock, [48, 128, 3]]  # stage 1

  - [-1, 1, DWConv, [128, 3, 2, 1, False]]  # 2-P3/8
  - [-1, 6, HGBlock, [96, 512, 3]]   # stage 2

  - [-1, 1, DWConv, [512, 3, 2, 1, False]]  # 4-P3/16
  - [-1, 6, HGBlock, [192, 1024, 5, True, False]]  # cm, c2, k, light, shortcut
  - [-1, 6, HGBlock, [192, 1024, 5, True, True]]
  - [-1, 6, HGBlock, [192, 1024, 5, True, True]]  # stage 3

  - [-1, 1, DWConv, [1024, 3, 2, 1, False]]  # 9-P4/32
  - [-1, 6, HGBlock, [384, 2048, 5, True, False]]  # stage 4

head:
  # - [-1, 1, Classify, [nc]]  # Classify
  - [-1, 1, Conv, [256, 1, 1, None, 1, 1, False]]
  - [-1, 1, AIFI, [1024, 8]]   # TODO
  - [-1, 1, Conv, [256, 1, 1]]   # Y5

  - [-1, 1, nn.Upsample, [None, 2, 'nearest']]
  - [7, 1, Conv, [256, 1, 1, None, 1, 1, False]]
  - [[-1, -2], 1, Concat, [1]] 
  - [-1, 3, RepC3, [256]]
  - [-1, 1, Conv, [256, 1, 1]]   # Y4

  - [-1, 1, nn.Upsample, [None, 2, 'nearest']]
  - [3, 1, Conv, [256, 1, 1, None, 1, 1, False]]
  - [[-1, -2], 1, Concat, [1]]  # cat backbone P4
  - [-1, 3, RepC3, [256]]    # X3

  - [-1, 1, Conv, [256, 3, 2]]
  - [[-1, 17], 1, Concat, [1]]  # cat Y4
  - [-1, 3, RepC3, [256]]    # F4

  - [-1, 1, Conv, [256, 3, 2]]
  - [[-1, 12], 1, Concat, [1]]  # cat Y4
  - [-1, 3, RepC3, [256]]    # F5
